model/waste_classifier_mobilenet_v4.onnx (onnx, 292183 bytes, 15 tensors)

inner.bias f4 [10]
0	0xbd2d78fe	-0.042351715
1	0xbd9281c4	-0.07153657
2	0x3e9e6901	0.30939487
3	0xbd8ac763	-0.06776311
4	0x3e69523b	0.22785275
5	0xbd5246a3	-0.051336896
6	0x3e8ee934	0.27912295
7	0x3dad2880	0.084549904
8	0xbd413939	-0.047173712
9	0xbd6666d9	-0.056250427

output_layer.weight f4 [6, 10]
0	0x3d4a15fa	0.049337365
1	0x3d610299	0.054934118
2	0xbf3e680b	-0.74377507
3	0xbd0d09f5	-0.034433324
4	0xbeac7f2f	-0.33690783
5	0x3e3f3414	0.1867221
6	0xbf1191df	-0.56863207
7	0x3f09c69a	0.53818667
8	0xbe179f8c	-0.14806956
9	0x3e213a6f	0.15744947
10	0xbce85537	-0.028360946
11	0xbdd82c3c	-0.10555312
12	0xbb085bdd	-0.0020806708
13	0x3e0eecf2	0.13957575
14	0x3eeebd94	0.46629012
15	0x3e892c03	0.2679139
16	0xbf1baa02	-0.60806286
17	0xbf04b353	-0.5183613
18	0xbe4113e6	-0.18855247
19	0x3de867fd	0.11347959
20	0x3c4ff6a8	0.012693085
21	0xbe3795c3	-0.17928223
22	0x3f05decc	0.52293086
23	0xbe6a67f4	-0.22891217
24	0xbed2dbc8	-0.41183305
25	0xbdb18d26	-0.086695
26	0x3d9b2213	0.075748585
27	0xbf520f6d	-0.8205479
28	0x3d86a741	0.0657487
29	0x3eb7231f	0.35768983
30	0xbc1cf495	-0.009579797
31	0xbe9cf925	-0.30658832
32	0x3e97315b	0.29529843
33	0x3def6961	0.11690021
34	0xbe033b75	-0.1281565
35	0x3e89611e	0.26831907
36	0xbe8aad85	-0.2708551
37	0x3eac55a4	0.3365909
38	0xbe7afe66	-0.24511108
39	0xbdcb0b00	-0.099142075
40	0x3dc827b2	0.09773196
41	0xbd9e8d9d	-0.07741854
42	0xbe974472	-0.29544407
43	0xbc0da58d	-0.008645427
44	0x3e863bf1	0.26217607
45	0x3e28e0c1	0.16491987
46	0x3ee77746	0.45208186
47	0xbe9b3f83	-0.30321893
48	0xbe2fe960	-0.17178869
49	0xbe771bd7	-0.24131714
50	0xbdc43c92	-0.09581865
51	0x3e59f6b1	0.21285512
52	0xbe8666ec	-0.26250398
53	0xbde130ba	-0.10995622
54	0xbf7a1968	-0.97695017
55	0xbe4d3699	-0.20040359
56	0x3f0750c6	0.52857625
57	0x3d45b80b	0.04827122
58	0xbe910af6	-0.28328675
59	0xbe4683c6	-0.19386205

output_layer.bias f4 [6]
0	0x3f7d877b	0.9903485
1	0x3f35016d	0.707053
2	0x3f370a06	0.7149967
3	0xbfb13fc6	-1.3847587
4	0xbfa131b0	-1.2593288
5	0x3fa038cd	1.2517334

base_model.features.0.0.weight_bias f4 [32]
0	0xbd684100	-0.056702614
1	0x3f092e77	0.53586525
2	0x3eba7f45	0.36425224
3	0x3e98dfff	0.29858395
4	0x3f88bbc9	1.0682307
5	0x3f25e812	0.64807236
6	0x3efa1a4d	0.4884819
7	0x3ebf6200	0.37379456
8	0x3f1d2434	0.61383367
9	0xbc1a848f	-0.0094310185
10	0xbd0aa368	-0.033847243
11	0x3f5ef721	0.8709584
12	0x3ee930e9	0.45545128
13	0xbf1af80f	-0.6053476
14	0xbc1af018	-0.009456657
15	0xbb0330fe	-0.0020018215
16	0xbd521220	-0.051286817
17	0xbc7388b1	-0.014864133
18	0x3e94a642	0.29033095
19	0x3d9750fb	0.07388493
20	0x3af55500	0.0018717349
21	0x3f1717f1	0.59020907
22	0x3d33cac0	0.04389453
23	0xbc95b115	-0.018272916
24	0xbe1566a0	-0.1458993
25	0x3effb542	0.49942976
26	0xbd617fc8	-0.055053502
27	0x3f4727f1	0.7779532
28	0x3e0bafe8	0.13641322
29	0x3de4702e	0.11154209
30	0x3eac6969	0.33674172
31	0x3e293c81	0.16526987

base_model.features.1.conv.0.0.weight_bias f4 [32]
0	0xbc446764	-0.011987541
1	0x3f6f64cf	0.93513197
2	0xbe843544	-0.25821888
3	0x3ed57dc4	0.41697514
4	0x3e83e2d8	0.25759006
5	0x3f5520c4	0.8325312
6	0x3f5c4888	0.86048174
7	0x3ed24e9d	0.41075602
8	0x407d7ebe	3.9608607
9	0xbb991eb8	-0.0046728514
10	0x3eac3019	0.33630446
11	0x3ea8aa4a	0.3294242
12	0x3f420ef5	0.7580407
13	0xbec22cc1	-0.3792477
14	0xbbba0ffd	-0.0056781755
15	0xbbb4b0ec	-0.005514255
16	0x3c087cbc	0.00833052
17	0x3c5ef643	0.013608518
18	0x3c12cdf8	0.00896024
19	0x3d901608	0.07035452
20	0xbe850cfc	-0.2598647
21	0x3fc9a9c9	1.5754939
22	0x3f5d2362	0.86382115
23	0x3aa08054	0.0012245276
24	0x3f42cbdd	0.7609232
25	0xbf15b96e	-0.5848607
26	0xbeb1b80c	-0.3471073
27	0x3f642c79	0.8913036
28	0x3f2911b7	0.66042656
29	0x3e8ebec7	0.27879927
30	0x3f780c35	0.96893626
31	0xbe5281af	-0.20557283

base_model.features.1.conv.1.weight_bias f4 [16]
0	0xc00c3742	-2.1908727
1	0x3ef64927	0.48102686
2	0xbfb54821	-1.4162637
3	0x3f8f7f8b	1.1210798
4	0xbdc12acf	-0.09431993
5	0xbef95c61	-0.48703292
6	0xbf366c1f	-0.7125873
7	0xbff6677b	-1.925033
8	0xbf618064	-0.88086534
9	0xbfe9a642	-1.8253863
10	0x3fcab42a	1.5836232
11	0xbefa156e	-0.48844475
12	0xbf49dcbc	-0.7885244
13	0xbe422243	-0.18958382
14	0x3fe83008	1.8139658
15	0x3fd29467	1.6451539

base_model.features.2.conv.2.weight_bias f4 [24]
0	0xbfab1161	-1.3364679
1	0x3f132d90	0.574914
2	0xbf3e84e2	-0.74421513
3	0xbe3dab74	-0.18522435
4	0xbdc3b041	-0.09555102
5	0xbf39342b	-0.72345227
6	0xbef2a9b1	-0.4739509
7	0x3e8851ae	0.26624817
8	0xbe852347	-0.26003477
9	0xbd1a0a5d	-0.03760754
10	0x3b01ec87	0.001982482
11	0x3ef68174	0.4814564
12	0x3e206e1e	0.15667006
13	0x3fc30fc8	1.5239191
14	0x3fa9025f	1.3203849
15	0x3f48d409	0.7844854
16	0x3e3a77ae	0.18209717
17	0xbde37918	-0.11107081
18	0xbf077f84	-0.5292895
19	0x3dfa986b	0.12236103
20	0x3e90e292	0.2829786
21	0x3e9cc142	0.30616194
22	0x3e31211d	0.17297788
23	0x3e0670e5	0.13129003

base_model.features.3.conv.2.weight_bias f4 [24]
0	0xbf8903f8	-1.0704336
1	0xbf86517f	-1.0493621
2	0x3d4927e9	0.049110327
3	0xbded624a	-0.11591013
4	0xbf9484d9	-1.1603042
5	0x3f9c13b0	1.2193508
6	0x3f829196	1.0200679
7	0x3db7cdab	0.08974775
8	0x3db9f355	0.09079615
9	0xbdeb7d14	-0.11498466
10	0xbffcd50f	-1.975252
11	0xbf139bf9	-0.5765987
12	0x3f34a6c1	0.70566946
13	0xbf9f21e6	-1.243222
14	0x3decdcb9	0.11565537
15	0xbec93399	-0.39297178
16	0x3ed197f4	0.40936244
17	0xbf0ea27f	-0.557167
18	0xbefe3d86	-0.49656314
19	0x3eb2a28b	0.34889635
20	0x3f743495	0.95392734
21	0x3f5c5449	0.8606611
22	0xc0102e3a	-2.2528214
23	0x3f9c1ca1	1.2196237

base_model.features.4.conv.2.weight_bias f4 [32]
0	0x3f528a7e	0.8224257
1	0x3f16beee	0.58885086
2	0xbf25d4e5	-0.64777976
3	0x3f47361d	0.77816945
4	0x3e371fd3	0.17883234
5	0xbfce6369	-1.6124088
6	0xbe785549	-0.24251284
7	0xbea2e112	-0.3181234
8	0x3ca1c62c	0.019747816
9	0xbfdf4c01	-1.744507
10	0x3f48bb96	0.78411233
11	0x3fc271f2	1.5191023
12	0x3f1d51a2	0.61452687
13	0x3f64bc50	0.8934984
14	0x3d875862	0.066086546
15	0xbf0fe906	-0.5621494
16	0x3f23d90c	0.6400306
17	0xbd99d0d2	-0.075105324
18	0x3f12c408	0.5733037
19	0xbe941fff	-0.2893066
20	0xbe6b473f	-0.22976397
21	0x3eef7179	0.4676626
22	0xbf14535c	-0.57939696
23	0x3ec5de1d	0.3864602
24	0xbf524d22	-0.82148945
25	0x3f7990c6	0.9748653
26	0xbe13c660	-0.14431143
27	0xbf962935	-1.1731325
28	0x3e99c692	0.3003431
29	0xbf85e2d6	-1.045985
30	0xbf358d2b	-0.7091853
31	0xbe34fb91	-0.1767409

base_model.features.5.conv.2.weight_bias f4 [32]
0	0x3d9bcfeb	0.076080166
1	0x3e3d49c2	0.18485168
2	0xbee0a344	-0.43874562
3	0x3f2971c2	0.66189206
4	0xbe3e9c48	-0.18614304
5	0xbceaf383	-0.028680569
6	0x3e1bacc5	0.15202625
7	0xbebc05f8	-0.36723304
8	0xbf13135f	-0.5745143
9	0x3de0f593	0.109843396
10	0x3d893e0b	0.06701287
11	0xbe1cd722	-0.15316442
12	0xbed1eb54	-0.40999854
13	0xbee6cc82	-0.45077902
14	0x3cddf37b	0.02709364
15	0xbec2c18a	-0.38038284
16	0x3eae6355	0.3406016
17	0xbe12d9d4	-0.14340907
18	0x3e03e6a9	0.12880959
19	0x3ef1f074	0.47253764
20	0x3f1b305f	0.60620683
21	0xbeb0dd20	-0.34543705
22	0x3e687685	0.22701462
23	0xbed3354f	-0.4125161
24	0x3dbc9e50	0.09209883
25	0xbe100289	-0.14063467
26	0xbef2398a	-0.47309524
27	0x3ef045ea	0.4692834
28	0x3ee3e289	0.4450877
29	0xbe1d52ca	-0.15363613
30	0xbe7b748f	-0.24556182
31	0x3e1f6df7	0.15569292

base_model.features.6.conv.2.weight_bias f4 [32]
0	0xbebea9e8	-0.37239003
1	0x3d55e08e	0.052216105
2	0xbe84211b	-0.25806507
3	0x3e479b55	0.19492848
4	0x3e847ae8	0.2587502
5	0x3e90246d	0.2815279
6	0xbec60acc	-0.38680112
7	0x3e32d972	0.17465761
8	0xbd7e5a35	-0.062097747
9	0x3f21739d	0.63067037
10	0x3e7f9f29	0.24963059
11	0x3e116cba	0.14201632
12	0x3e44feba	0.19237795
13	0x3e719581	0.23592187
14	0x3e8a5ff5	0.27026334
15	0xbf106409	-0.5640264
16	0xbf2cf525	-0.6756156
17	0xbef623a5	-0.4807407
18	0x3db3356d	0.087504245
19	0x3f603240	0.87576675
20	0x3ea2e5a2	0.3181582
21	0x3e43f1e1	0.19135238
22	0xbd822a24	-0.06355694
23	0x3e81aefd	0.25328818
24	0xbd518a78	-0.051157445
25	0xbf135735	-0.5755494
26	0xbebc0abb	-0.36726937
27	0x3ed121d6	0.40846127
28	0xbe82cadc	-0.25545394
29	0xbf027bd3	-0.5097019
30	0x3eee45fa	0.46537763
31	0xbea27081	-0.3172646

base_model.features.7.conv.2.weight_bias f4 [64]
0	0xbefec8f8	-0.49762702
1	0xbe1fd33a	-0.1560792
2	0xbf5d23c5	-0.86382705
3	0xbd9e8ae2	-0.077413335
4	0xbf1f6982	-0.6227037
5	0xbdd52871	-0.10408104
6	0x3e007537	0.12544714
7	0xbf6b9240	-0.92020035
8	0xbd315738	-0.04329607
9	0x40047239	2.0694716
10	0xbfb99896	-1.449969
11	0x3f89ceeb	1.0766271
12	0x3da518b2	0.08061351
13	0xbf0c3df4	-0.5478203
14	0x3ee44f9b	0.44591984
15	0x3ddd1d4a	0.10796602
16	0xbe74cd35	-0.23906405
17	0xbe988666	-0.29790038
18	0xbe322675	-0.17397483
19	0xbea0abcc	-0.3138107
20	0xbd583ecc	-0.052794263
21	0xbf74d426	-0.9563621
22	0x3f392342	0.72319424
23	0x3eebd682	0.46062094
24	0x3e062675	0.13100608
25	0xbe1fda5c	-0.15610641
26	0x3f433382	0.7625047
27	0xbf59de1e	-0.8510455
28	0x3e49e437	0.19715963
29	0xbf92dd6e	-1.1473825
30	0x3e255228	0.16144621
31	0x3e8d9c73	0.27658424
32	0x3f9357cb	1.1511167
33	0x3efd60aa	0.4948781
34	0x3e9d005a	0.3066433
35	0xbdcf6bb5	-0.10127965
36	0xbdd1ecfe	-0.10250281
37	0xbd1883dd	-0.03723513
38	0xbf89b83b	-1.0759348
39	0xbe350172	-0.17676333
40	0x3f9e11ed	1.234922
41	0x3f78ad33	0.9713928
42	0xbf35fb16	-0.7108625
43	0xbf54076e	-0.82823837
44	0xbf5c26eb	-0.85996884
45	0xbc150852	-0.009096222
46	0x3e57d486	0.21077165
47	0xbeac8f1a	-0.33702928
48	0x3f312be1	0.6920758
49	0x3eba6a19	0.3640907
50	0x3f0a4d50	0.5402422
51	0x3e341587	0.17586337
52	0x3fa26b0e	1.268892
53	0x3f1e486c	0.61829257
54	0x3f615c46	0.88031423
55	0xbc40da28	-0.0117707625
56	0x3f74d001	0.9562989
57	0xbf9cd736	-1.2253177
58	0x3e64348c	0.2228567
59	0xbe923c50	-0.2856164
60	0xbe8f05d9	-0.2793415
61	0x3eed959e	0.4640321
62	0x3f888509	1.0665599
63	0xbe43d8ae	-0.19125625

base_model.features.8.conv.2.weight_bias f4 [64]
0	0xbe975bd4	-0.29562247
1	0xbe231bb3	-0.15928535
2	0x3dae22b6	0.08502714
3	0x3e6f68bc	0.23379797
4	0xbe185cbe	-0.14879128
5	0x3cbc70b0	0.023002952
6	0x3cb95c42	0.022627
7	0xbf0a13fd	-0.5393675
8	0xbea05744	-0.31316578
9	0x3cdae56a	0.026720721
10	0xbe842e03	-0.25816354
11	0x3e1426d5	0.14467938
12	0x3dbd410d	0.09240923
13	0xbdb14d65	-0.0865734
14	0x3d820d2c	0.063501686
15	0x3e865bfd	0.26242056
16	0x3e9471a3	0.28992948
17	0x3da2ac92	0.079430714
18	0x3eafef1f	0.34362122
19	0xbe8a6310	-0.27028704
20	0xbe32d473	-0.17463855
21	0xbef8728a	-0.48524886
22	0x3b04cf49	0.0020265153
23	0x3ef4404f	0.47705314
24	0x3e1cce14	0.15312988
25	0xbe6e8b49	-0.2329532
26	0x3f7e4fb2	0.99340355
27	0xbe2a1d22	-0.16612676
28	0x3e25f556	0.1620687
29	0x3de7582b	0.112961136
30	0x3ebb7611	0.36613515
31	0x3f201da8	0.6254525
32	0xbdce3cf7	-0.10070222
33	0x3e194109	0.14966215
34	0xbf8b6c1f	-1.0892371
35	0xbed22f5f	-0.41051766
36	0x3f194f43	0.5988657
37	0xbd71b03c	-0.05900596
38	0x3e042d83	0.12907986
39	0xbe79ec4e	-0.2440655
40	0xbdec0bd7	-0.11525696
41	0xbea5bce2	-0.3237067
42	0x3e94caa4	0.29060853
43	0xbdb0fbb9	-0.08641762
44	0x3f064c19	0.52459866
45	0x3e088708	0.1333276
46	0xbaca43e1	-0.0015431606
47	0x3f40a8c7	0.75257534
48	0x3e26022a	0.16211763
49	0x3e31e8a2	0.17373899
50	0xbda88ca7	-0.08229952
51	0x3ea4e18d	0.32203332
52	0x3e0c2729	0.13686813
53	0xbe719d75	-0.23595221
54	0xbe9e24df	-0.30887505
55	0x3edabaa2	0.42720515
56	0x3eb6349e	0.3558702
57	0xbd8ffc61	-0.07030559
58	0x3e8f98c8	0.2804625
59	0x3f4fbe9a	0.8115021
60	0x3f521fbc	0.8207967
61	0xbf1ff15b	-0.62477654
62	0x3a354d12	0.00069160864
63	0xbe871c7b	-0.26388916

base_model.features.9.conv.2.weight_bias f4 [64]
0	0x3e96cbf6	0.29452485
1	0x3e112b1d	0.14176603
2	0xbeab0171	-0.33399537
3	0xbe097de3	-0.13426928
4	0xbe8ba366	-0.272731
5	0xbe91c993	-0.284741
6	0x3e821f5d	0.25414553
7	0x3da9b91b	0.08287259
8	0xbef02c51	-0.4690881
9	0x3da9403b	0.08264204
10	0x3e26ab8f	0.16276382
11	0xbe84783b	-0.2587298
12	0xbdc07f5a	-0.093992904
13	0xbe99775c	-0.29973876
14	0x3d8fa5d2	0.070140496
15	0x3e9862e3	0.29762945
16	0x3e1e2c53	0.15446596
17	0xbe9e9a3c	-0.30977046
18	0x3ecb557f	0.39713666
19	0x3d591ff8	0.053009003
20	0x3e9c06b6	0.3047387
21	0x3ee3df10	0.4450612
22	0x3e8b7dd7	0.27244446
23	0xbd55ed2f	-0.05222815
24	0x3e6f0050	0.23339963
25	0xbdc81714	-0.09770027
26	0x3e2c68b6	0.16836819
27	0xbcaaafdc	-0.02083581
28	0x3d0300be	0.03198313
29	0x3b16a244	0.0022984901
30	0xbb230f42	-0.002488092
31	0xbda5e39c	-0.08100054
32	0xbccbf854	-0.024898686
33	0xbed5e4cc	-0.4177612
34	0x3e313202	0.17304233
35	0xbe6d9051	-0.23199584
36	0xbe4dca17	-0.20096622
37	0xbee761ce	-0.45191807
38	0x3e02c552	0.12770584
39	0x3eb6baf3	0.35689506
40	0xbe3147ff	-0.1731262
41	0xbe63c742	-0.2224398
42	0x3e3d8c95	0.18510659
43	0x3e3961c8	0.18103707
44	0x3e3548a4	0.17703491
45	0x3e520301	0.20508958
46	0xbd9f01e4	-0.077640325
47	0x3ea43599	0.32072142
48	0xbe56e49b	-0.20985644
49	0x3c3101b1	0.010803626
50	0x3d60480f	0.05475622
51	0xbed62b8e	-0.41830105
52	0xbe92e49d	-0.28690043
53	0xbdaf6bc3	-0.08565476
54	0xbd13e9b3	-0.036111545
55	0x3cbcd0c4	0.023048766
56	0xb98be75a	-0.00026684516
57	0x3d33a253	0.043855976
58	0xbe4e2d8d	-0.20134564
59	0xbe5d0cf5	-0.21586974
60	0x3f5da15c	0.8657434
61	0x3eccabd5	0.39974847
62	0x3e6bb046	0.23016462
63	0xbe39193d	-0.18076034

base_model.features.10.conv.2.weight_bias f4 [64]
0	0xbe8c721c	-0.2743081
1	0xbe1771dd	-0.14789529
2	0x3e0a3902	0.13498309
3	0xbefbae68	-0.491565
4	0x3f0ee817	0.5582289
5	0xbdf27ab3	-0.11839809
6	0xbe10ccdb	-0.14140646
7	0x3e7c1000	0.24615479
8	0xbf2e4a48	-0.68082094
9	0x3f159356	0.5842794
10	0xbd8bbe35	-0.068233885
11	0xbeeb60c9	-0.4597228
12	0xbedaaf9a	-0.42712098
13	0xbefa1a54	-0.48848212
14	0xbec00574	-0.3750416
15	0xbe846104	-0.25855267
16	0x3e5d8baa	0.21635309
17	0xbe27adc4	-0.1637488
18	0x3e8d5dbb	0.27610573
19	0x3e21f98f	0.15817855
20	0x3db0e5ab	0.08637556
21	0x3e411196	0.18854365
22	0xbf1805c7	-0.59383816
23	0x3e2701e8	0.16309321
24	0xbcbb9bd4	-0.022901453
25	0xbdaaeda6	-0.08346109
26	0x3e98646f	0.29764125
27	0x3dee5f88	0.11639315
28	0xbe2dd154	-0.16974384
29	0xbe671ff3	-0.22570781
30	0xbd183841	-0.037163023
31	0xbf264863	-0.64954203
32	0xbf3aa21c	-0.7290361
33	0x3e6a2f1f	0.22869538
34	0x3e98589c	0.29755104
35	0x3d664c04	0.056224838
36	0xbd84dd70	-0.06487548
37	0xbe21aecb	-0.15789334
38	0xbe05044b	-0.12989919
39	0x3e496678	0.19667995
40	0x3f00ca64	0.50308824
41	0x3bdf3e99	0.006812882
42	0x3b92dcdb	0.0044818944
43	0x3dbf7214	0.093479306
44	0xbdb01deb	-0.085994564
45	0xbe25573a	-0.16146556
46	0xbe63c5b3	-0.22243385
47	0xbec50129	-0.38477448
48	0x3e651a2f	0.2237327
49	0xbea578e8	-0.32318807
50	0xbd1e6f70	-0.038680494
51	0xbcdd8614	-0.027041472
52	0xbea929c6	-0.33039683
53	0x3e89cb59	0.26912954
54	0x3cfbb71b	0.03072696
55	0xbd8fc894	-0.07020679
56	0x3e5f60cf	0.21814273
57	0xbe9b114f	-0.30286643
58	0xbf569e95	-0.83835727
59	0xbe9f4abb	-0.31111702
60	0x3d5a55d9	0.053304527
61	0xbe98424a	-0.29738075
62	0xbd3378e6	-0.04381647
63	0x3e3fa271	0.1871431
