model/waste_classifier_mobilenet_v4.onnx (onnx, 287992 bytes, 13 tensors)

output_layer.bias f4 [6]
000000 06 43 a2 be 28 e1 bb 3d 43 88 49 3e 4a c9 86 3e
       -0.3169176 0.091738045 0.19680886 0.26325446
000010 60 13 02 be 31 cf 39 3c
       -0.12702703 0.011340902

base_model.features.0.0.weight_bias f4 [32]
000000 db 39 66 bd 97 33 09 3f 5e 70 ba 3e d3 ed 98 3e
       -0.05620752 0.53594345 0.36413854 0.29868945
000010 9d d5 88 3f 53 44 27 3f 29 19 fa 3e c8 a9 be 3e
       1.069019 0.6533863 0.4884732 0.37238908
000020 4e 2d 1d 3f 6b 88 1c bc 78 4d 1d bd 1c d5 5e 3f
       0.61397254 -0.009554009 -0.038403958 0.8704393
000030 70 1c e9 3e b7 fe 1a bf 1e 71 1a bc 64 59 fe ba
       0.4552951 -0.60544914 -0.009426383 -0.0019405303
000040 a8 20 52 bd 0f d1 72 bc 12 75 94 3e 32 aa 74 3d
       -0.051300675 -0.014820351 0.28995568 0.059732623
000050 80 a1 79 3b 0f 36 17 3f 00 9c 4e 3d c4 36 96 bc
       0.0038090646 0.5906686 0.050441742 -0.018336661
000060 0e 71 0f be d1 d2 ff 3e 80 d5 5d bd 47 3c 48 3f
       -0.1400797 0.49965528 -0.054158688 0.78216976
000070 de 8a 12 3e a0 3c e4 3d 76 d1 b2 3e e6 86 28 3e
       0.14310786 0.11144376 0.3492543 0.1645771

base_model.features.1.conv.0.0.weight_bias f4 [32]
000000 57 68 44 bc c5 60 6f 3f 10 db 73 be d4 79 d5 3e
       -0.011987767 0.93507034 -0.23814034 0.4169451
000010 a9 e4 83 3e b0 9f 55 3f ae 82 5c 3f d1 13 d2 3e
       0.2576039 0.8344679 0.861369 0.41030744
000020 73 7d 7c 40 f1 20 99 bb be 2c ac 3e b8 6d a8 3e
       3.9451568 -0.0046731164 0.33627886 0.3289621
000030 8c bd 42 3f ae 62 c2 be b5 11 ba bb 98 aa b4 bb
       0.76070476 -0.37965912 -0.0056783804 -0.0055135004
000040 bc 7c 08 3c 43 f6 5e 3c 10 cf 08 3c a4 70 87 3d
       0.00833052 0.013608518 0.008350149 0.06613281
000050 73 06 85 be 05 37 c9 3f 51 7f 5d 3f 54 80 a0 3a
       -0.25981483 1.5719916 0.86522394 0.0012245276
000060 61 bf 42 3f 7e dd 10 bf 98 07 b2 be af 85 65 3f
       0.7607327 -0.5658797 -0.3477142 0.8965711
000070 04 0a 29 3f 7c ac 8e 3e 5c f5 78 3f 6f 22 52 be
       0.6603091 0.2786597 0.9724939 -0.20520948

base_model.features.1.conv.1.weight_bias f4 [16]
000000 05 c3 0b c0 d7 f0 f3 3e 39 48 b4 bf 4d b1 8e 3f
       -2.183778 0.47644684 -1.4084541 1.1147858
000010 16 5e c1 bd dd 9d f8 be 33 e2 34 bf 1e 9a f3 bf
       -0.094417736 -0.4855794 -0.7065765 -1.9031408
000020 9d 7c 60 bf 2d 3d e9 bf f3 20 cb 3f 31 19 f8 be
       -0.87690145 -1.8221794 1.586943 -0.4845672
000030 5c 9f 48 bf 57 59 41 be f7 fa e6 3f 48 43 d1 3f
       -0.78368163 -0.18881737 1.8045338 1.6348658

base_model.features.2.conv.2.weight_bias f4 [24]
000000 9c 71 aa bf c9 f5 11 3f 23 21 40 bf 0f 40 3d be
       -1.3315921 0.57015663 -0.7505056 -0.18481468
000010 ba 1c c8 bd eb e3 38 bf 57 0d f1 be df 25 88 3e
       -0.09771104 -0.72222775 -0.4708049 0.26591393
000020 af d1 84 be 87 fa 1a bd f3 92 20 3b 63 ab f5 3e
       -0.25941226 -0.037836578 0.002450165 0.4798232
000030 2c d5 20 3e 63 49 c3 3f 3f 66 a9 3f c7 4b 4a 3f
       0.15706319 1.5256771 1.3234328 0.7902188
000040 2d 4b 3b 3e 74 68 e7 bd 5a 1f 07 bf 0e 50 fc 3d
       0.18290396 -0.1129922 -0.52782214 0.12319957
000050 85 49 90 3e 30 43 9b 3e 94 50 30 3e 87 7f 06 3e
       0.2818109 0.30324697 0.17218238 0.13134585

base_model.features.3.conv.2.weight_bias f4 [24]
000000 dc 0d 89 bf 47 82 86 bf 0f cd 4c 3d ae 71 f0 bd
       -1.0707355 -1.0508507 0.050000247 -0.11740433
000010 59 db 94 bf 3d e4 9a 3f 99 73 82 3f a1 da b5 3d
       -1.162944 1.2100903 1.0191528 0.08879591
000020 78 be b8 3d e7 af eb bd e0 73 fc bf bd e1 13 bf
       0.09020704 -0.1150816 -1.9722862 -0.57766324
000030 80 61 34 3f e7 d2 9e bf 36 ef ec 3d 8b 4c c9 be
       0.70461273 -1.2408112 0.11569063 -0.3931621
000040 34 b8 d0 3e 60 1f 0e bf 59 12 fe be 5e 01 b3 3e
       0.40765536 -0.55516624 -0.49623373 0.3496198
000050 ad e2 73 3f 11 20 5b 3f 79 ef 0f c0 83 f5 9b 3f
       0.95267755 0.85595804 -2.2489913 1.2184299

base_model.features.4.conv.2.weight_bias f4 [32]
000000 73 4c 52 3f 42 1f 16 3f 27 a5 25 bf 2c 95 47 3f
       0.821479 0.58641446 -0.6470513 0.77961993
000010 49 0a 37 3e 78 a5 cd bf f6 e6 77 be 55 2c a3 be
       0.17875017 -1.6066122 -0.24209198 -0.3186976
000020 27 75 9c 3c 46 8d e1 bf 2d ec 46 3f a6 a7 c1 3f
       0.019098831 -1.7621238 0.77704126 1.5129287
000030 1b 42 1d 3f a3 24 61 3f f9 60 84 3d 3e a2 0f bf
       0.61428994 0.8794653 0.064638086 -0.56106937
000040 a2 de 24 3f 35 97 99 bd d1 a7 13 3f ef c0 94 be
       0.6440221 -0.074995436 0.5767794 -0.29053447
000050 62 6d 6a be 04 ea ed 3e 95 c1 14 bf 3a cb c4 3e
       -0.22893289 0.46467602 -0.5810788 0.384363
000060 df a4 51 bf f7 95 7b 3f d0 bd 14 be aa 85 97 bf
       -0.818922 0.98275703 -0.14525533 -1.1837666
000070 e6 88 99 3e a8 c1 85 bf a1 47 35 bf b1 18 37 be
       0.29987258 -1.0449724 -0.7081242 -0.17880513

base_model.features.5.conv.2.weight_bias f4 [32]
000000 18 ea 9f 3d 21 24 40 3e 61 80 df be 97 1d 29 3f
       0.07808322 0.18763782 -0.43652633 0.66060776
000010 fa ea 3d be 3a ed 00 bd f9 a4 1a 3e dc df bb be
       -0.18546668 -0.031476237 0.15101995 -0.3669423
000020 6e 47 13 bf e5 7a dc 3d 2b 22 84 3d fc 1f 1c be
       -0.5753087 0.10765628 0.064518295 -0.15246576
000030 20 f6 d1 be e2 93 e7 be 1e d4 d1 3c 47 44 c4 be
       -0.4100809 -0.45230013 0.02561384 -0.3833334
000040 3c 48 af 3e 8c 2a 13 be 70 d2 02 3e 6e d8 f0 3e
       0.34234798 -0.14371699 0.12775588 0.47040123
000050 12 21 1a 3f 34 d4 af be 80 16 69 3e 9a 10 d3 be
       0.6020671 -0.34341586 0.2276249 -0.41223603
000060 74 b0 b8 3d 0b 8b 11 be 6f 21 f2 be 1d 57 f1 3e
       0.09018031 -0.14213197 -0.47291133 0.47136775
000070 60 dc e4 3e 61 41 1e be 2e bb 79 be 77 e8 21 3e
       0.44699383 -0.15454628 -0.2438781 0.15811335

base_model.features.6.conv.2.weight_bias f4 [32]
000000 03 eb be be 08 0d 59 3d 2f b2 84 be 59 86 47 3e
       -0.37288675 0.052990943 -0.25917193 0.19484843
000010 d5 e5 84 3e 0e b5 8e 3e 67 94 c6 be 55 27 30 3e
       0.25956598 0.2787251 -0.38785097 0.17202504
000020 26 80 80 bd 1a 58 21 3f 98 ee 7e 3e e7 09 10 3e
       -0.062744424 0.6302506 0.24895704 0.14066277
000030 67 88 45 3e 59 c5 72 3e ee 6d 8a 3e 5c 96 10 bf
       0.19290315 0.23708095 0.27036995 -0.5647943
000040 c4 4b 2d bf be 73 f5 be 1f d9 af 3d 05 ea 5f 3f
       -0.67693734 -0.47939867 0.085863344 0.8746646
000050 b2 a8 a2 3e 5a ec 44 3e ce e5 82 bd e8 fb 81 3e
       0.3176933 0.19230786 -0.06391488 0.25387502
000060 78 c3 53 bd 94 d4 13 bf 89 3b bd be 6a 75 d2 3e
       -0.051700085 -0.57746243 -0.36959484 0.41105205
000070 fb 88 82 be b0 ce 02 bf 1c a8 ec 3e 3f a6 a2 be
       -0.25495133 -0.5109663 0.46222007 -0.3176746

base_model.features.7.conv.2.weight_bias f4 [64]
000000 93 10 00 bf 4c cf 1f be 82 30 5e bf eb cd 9c bd
       -0.5002529 -0.15606421 -0.8679277 -0.07656463
000010 c7 90 21 bf ba c9 d4 bd 08 f2 00 3e 0a 52 6d bf
       -0.6311154 -0.10390039 0.12592328 -0.92703307
000020 79 75 30 bd 57 35 05 40 6b 53 b8 bf 41 cc 89 3f
       -0.04308078 2.0813806 -1.4400457 1.0765458
000030 0b 46 a5 3d 1f 91 0b bf de 48 e3 3e 53 1c df 3d
       0.0807 -0.5451831 0.4439153 0.10894074
000040 ea 86 72 be a7 ff 98 be dd 0f 33 be d5 68 9f be
       -0.23684278 -0.29882547 -0.1748652 -0.31134668
000050 69 4f 5a bd 0d 26 73 bf 55 25 3a 3f 61 57 ed 3e
       -0.053298388 -0.94979936 0.72713214 0.46355727
000060 1a a7 06 3e d1 65 20 be 87 17 43 3f ff 37 5a bf
       0.13149682 -0.1566384 0.76207775 -0.85241693
000070 41 4a 4a 3e 07 bf 92 bf e3 9a 23 3e 2b a0 8c 3e
       0.19754888 -1.1464547 0.15977053 0.27465948
000080 ed 49 94 3f 4e c9 fd 3e ff 58 9d 3e 13 95 cd bd
       1.158506 0.49567646 0.3073196 -0.10038199
000090 74 30 d2 bd 83 3c 19 bd e9 8a 88 bf e6 b4 33 be
       -0.10263148 -0.037411224 -1.0667392 -0.17549476
0000a0 b9 7c 9e 3f 4b b1 79 3f 1f 80 35 bf 5a 11 53 bf
       1.2381812 0.9753615 -0.7089862 -0.8244835
0000b0 8b 0b 5b bf 5a 8c 18 bc 92 86 58 3e 57 2c ac be
       -0.8556449 -0.009310806 0.21145085 -0.3362758
0000c0 ca d5 31 3f e4 8f bb 3e fa b5 09 3f 64 57 33 3e
       0.6946684 0.36633217 0.537933 0.17513806
0000d0 75 70 a3 3f 26 98 1e 3f 5c e4 5e 3f c0 82 35 bc
       1.2768694 0.6195091 0.870672 -0.0110785365
0000e0 80 bb 74 3f d5 71 9e bf a8 02 67 3e 37 1c 94 be
       0.955986 -1.2378489 0.22559607 -0.28927776
0000f0 f5 ee 8d be 71 de ea 3e 83 17 8a 3f 81 2c 46 be
       -0.27721372 0.45872834 1.0788425 -0.19352914

base_model.features.8.conv.2.weight_bias f4 [64]
000000 e2 a9 98 be 30 e4 22 be 38 32 b0 3d 61 ec 6e 3e
       -0.2981711 -0.15907359 0.086033285 0.23332359
000010 e9 37 19 be 45 6b b6 3c 5a e0 b1 3c a2 b0 08 bf
       -0.14962734 0.022267947 0.021713424 -0.5339452
000020 07 fa 9f be fe 2b e2 3c c3 bc 84 be f8 39 14 3e
       -0.31245443 0.027608868 -0.25925264 0.14475238
000030 53 c2 bd 3d f0 84 ad bd 2a 6a 80 3d ce 72 85 3e
       0.0926558 -0.084726214 0.06270249 0.26064152
000040 77 ad 93 3e 75 21 a1 3d fa c2 ae 3e e4 4a 8b be
       0.2884328 0.078677095 0.3413313 -0.27205575
000050 b5 b6 32 be 60 2c fa be e2 38 19 3b 0a 9d f2 3e
       -0.1745251 -0.4886198 0.0023379852 0.47385436
000060 99 5d 1d 3e f0 b7 70 be d2 7a 7d 3f 65 db 29 be
       0.15367736 -0.23507667 0.99015534 -0.16587599
000070 15 9c 24 3e a9 65 e8 3d 2c e2 bb 3e ba dd 1e 3f
       0.16075166 0.11347515 0.36695993 0.6205708
000080 2d e5 cd bd df 59 1a 3e 97 14 8c bf fb 38 d0 be
       -0.100534774 0.15073346 -1.0943784 -0.40668473
000090 a7 14 19 3f b7 cf 73 bd a4 14 04 3e 71 35 7b be
       0.5979714 -0.059524264 0.12898499 -0.24532105
0000a0 1c 15 e9 bd 8e 83 a6 be 33 3e 93 3e d4 92 b1 bd
       -0.113809794 -0.32522243 0.28758392 -0.08670583
0000b0 5e 27 05 3f ba 3d 08 3e 17 de ca ba c4 ad 40 3f
       0.52013195 0.13304797 -0.0015477565 0.75265145
0000c0 1f 03 26 3e c9 a6 32 3e df 47 a8 bd 38 ca a3 3e
       0.16212128 0.17446436 -0.08216833 0.31990218
0000d0 b6 94 0b 3e 1b 8e 70 be b0 93 9f be c4 69 db 3e
       0.13630947 -0.23491709 -0.31167364 0.4285413
0000e0 9a c3 b5 3e cf 3b 8f bd ef 27 8e 3e 91 15 4c 3f
       0.35500795 -0.069938295 0.27764842 0.7972041
0000f0 3a 7b 53 3f 76 b2 1e bf 2d e4 95 3a 75 2a 87 be
       0.82609904 -0.6199106 0.00114358 -0.2639958

base_model.features.9.conv.2.weight_bias f4 [64]
000000 5b cb 97 3e 2e 7a 0f 3e 24 6e ac be f2 8e 09 be
       0.29647335 0.14011452 -0.3367778 -0.13433436
000010 3c cb 8b be 7e 0c 92 be a3 de 81 3e e5 b8 a9 3d
       -0.27303493 -0.28525156 0.2536517 0.08287219
000020 ca a4 ef be 29 66 a9 3d ef 8b 27 3e 11 fd 84 be
       -0.46805412 0.08271439 0.16361974 -0.25974324
000030 51 36 c3 bd 30 b4 9a be 0e 40 8f 3d db e9 97 3e
       -0.095318444 -0.30215597 0.06994639 0.29670605
000040 e6 dc 1e 3e 06 aa 9e be 11 33 c9 3e 86 8a 59 3d
       0.15513954 -0.30989093 0.39296773 0.053110622
000050 94 8c 9d 3e b9 56 e5 3e dd 1e 8b 3e 62 79 54 bd
       0.30771315 0.44792727 0.27171984 -0.051873572
000060 70 0f 6f 3e 5e 99 c7 bd 11 0d 2d 3e 73 da a7 bc
       0.23345733 -0.09746049 0.16899516 -0.020489907
000070 94 37 04 3d e5 b0 11 3b 99 f0 3b bb 9c 87 a6 bd
       0.032279566 0.0022230681 -0.0028677343 -0.08131334
000080 6f 1e cd bc 80 04 d7 be 5d 4e 30 3e 53 9a 6e be
       -0.025038926 -0.4199562 0.17217393 -0.23301058
000090 31 5d 4d be 1d 24 e7 be ca 2d 04 3e cd f7 b5 3e
       -0.20055081 -0.4514474 0.12908092 0.3554062
0000a0 e2 9b 30 be 13 05 64 be ba 78 3d 3e 34 c8 38 3e
       -0.17246965 -0.2226756 0.18503085 0.18045121
0000b0 70 e0 34 3e d1 6f 52 3e de 5c 9f bd d0 dc a4 3e
       0.17663741 0.20550467 -0.07781385 0.32199717
0000c0 36 32 57 be 9a 31 33 3c fa 50 5d 3d d2 00 d6 be
       -0.21015248 0.010937119 0.054032303 -0.417975
0000d0 cc 87 93 be a2 b4 b2 bd c6 f9 13 bd 20 13 c0 3c
       -0.28814542 -0.08725859 -0.036126874 0.02344662
0000e0 f0 6e 77 3a bd 90 35 3d 7c 1e 4e be 41 5a 5d be
       0.0009438833 0.044327486 -0.20128816 -0.2161646
0000f0 56 ea 5e 3f 51 24 cb 3e 1e e5 6e 3e 39 f4 38 be
       0.8707632 0.39676145 0.23329589 -0.18061914

base_model.features.10.conv.2.weight_bias f4 [64]
000000 bf c2 8b be c0 1f 16 be e7 05 09 3e b2 c6 f9 be
       -0.27297017 -0.14660549 0.13381158 -0.48784405
000010 01 5c 0f 3f fb 2c f3 bd 32 ae 0f be f2 06 7d 3e
       0.5599976 -0.11873814 -0.14031294 0.2470968
000020 cd e2 2e bf 19 b4 15 3f 7d f3 8b bd aa 0b ec be
       -0.6831482 0.5847793 -0.06833551 -0.4610265
000030 8f f5 da be f0 70 fa be 6c d5 c0 be 2a 3e 84 be
       -0.4276547 -0.4891429 -0.37662828 -0.25828677
000040 ff fa 5d 3e a9 d7 26 be 76 2e 8e 3e 60 52 21 3e
       0.21677779 -0.16293205 0.27769822 0.1575408
000050 16 57 b2 3d 8e 0c 41 3e c5 ed 18 bf fc fc 26 3e
       0.087080166 0.18852445 -0.5973781 0.16307443
000060 7b b3 b8 bc c0 44 ab bd d3 fc 98 3e 66 03 ec 3d
       -0.02254652 -0.083627224 0.2988039 0.11524086
000070 0a c7 2c be a5 ca 67 be a5 78 1a bd 64 cc 26 bf
       -0.16872802 -0.22635897 -0.03771271 -0.65155625
000080 36 62 3a bf ce 41 6a 3e e3 ec 97 3e 31 90 64 3d
       -0.7280611 0.22876665 0.29672918 0.055801574
000090 15 24 85 bd 2e d9 20 be f6 a2 06 be e3 92 49 3e
       -0.06501023 -0.15707847 -0.13148102 0.19684939
0000a0 0d 38 ff 3e e7 b2 b4 3b ae aa a5 3b 4d 4a bf 3d
       0.4984745 0.005514491 0.005055747 0.093403436
0000b0 4d 7d b0 bd 45 49 23 be 8b 34 64 be 7a 96 c3 be
       -0.08617649 -0.15945919 -0.22285669 -0.38200742
0000c0 7c 06 65 3e de d0 a4 be e7 88 1e bd 54 a2 d8 bc
       0.22365755 -0.32190603 -0.03870478 -0.026444592
0000d0 84 eb a9 be 2b 25 8a 3e 42 66 f4 3c dc 4f 90 bd
       -0.33187497 0.26981482 0.029833917 -0.07046482
0000e0 51 7b 5e 3e e8 95 9b be 58 ab 56 bf 24 8a 9f be
       0.21726729 -0.30387807 -0.838552 -0.3116008
0000f0 6f e3 58 3d 7a 5c 97 be f5 41 2f bd e7 58 3f 3e
       0.052951273 -0.29562742 -0.04278751 0.18686257
